…
\n","y = tf.keras.layers.GlobalAveragePooling2D()(y)\n","y = tf.keras.layers.Dense(2, activation='softmax')(y)\n","\n","model = tf.keras.Model(x, y)\n","model.summary()"],"execution_count":4,"outputs":[{"output_type":"stream","text":["Model: \"model_1\"\n","__________________________________________________________________________________________________\n","Layer (type)                    Output Shape         Param #     Connected to                     \n","==================================================================================================\n","input_2 (InputLayer)            [(None, 192, 192, 3) 0                                            \n","__________________________________________________________________________________________________\n","conv2d_16 (Conv2D)              (None, 192, 192, 32) 896         input_2[0][0]                    \n","__________________________________________________________________________________________________\n","batch_normalization_16 (BatchNo (None, 192, 192, 32) 128         conv2d_16[0][0]                  \n","__________________________________________________________________________________________________\n","conv2d_17 (Conv2D)              (None, 192, 192, 24) 792         batch_normalization_16[0][0]     \n","__________________________________________________________________________________________________\n","batch_normalization_17 (BatchNo (None, 192, 192, 24) 96          conv2d_17[0][0]                  \n","__________________________________________________________________________________________________\n","conv2d_18 (Conv2D)              (None, 192, 192, 24) 600         batch_normalization_17[0][0]     \n","__________________________________________________________________________________________________\n","conv2d_19 (Conv2D)              (None, 192, 192, 24) 5208        batch_normalization_17[0][0]     \n","__________________________________________________________________________________________________\n","batch_normalization_18 (BatchNo (None, 192, 192, 24) 96          conv2d_18[0][0]                  \n","__________________________________________________________________________________________________\n","batch_normalization_19 (BatchNo (None, 192, 192, 24) 96          conv2d_19[0][0]                  \n","__________________________________________________________________________________________________\n","concatenate_5 (Concatenate)     (None, 192, 192, 48) 0           batch_normalization_18[0][0]     \n","                                                                 batch_normalization_19[0][0]     \n","__________________________________________________________________________________________________\n","max_pooling2d_4 (MaxPooling2D)  (None, 96, 96, 48)   0           concatenate_5[0][0]              \n","__________________________________________________________________________________________________\n","conv2d_20 (Conv2D)              (None, 96, 96, 48)   2352        max_pooling2d_4[0][0]            \n","__________________________________________________________________________________________________\n","batch_normalization_20 (BatchNo (None, 96, 96, 48)   192         conv2d_20[0][0]                  \n","__________________________________________________________________________________________________\n","conv2d_21 (Conv2D)              (None, 96, 96, 48)   2352        batch_normalization_20[0][0]     \n","__________________________________________________________________________________________________\n","conv2d_22 (Conv2D)              (None, 96, 96, 48)   20784       batch_normalization_20[0][0]     \n","__________________________________________________________________________________________________\n","batch_normalization_21 (BatchNo (None, 96, 96, 48)   192         conv2d_21[0][0]                  \n","__________________________________________________________________________________________________\n","batch_normalization_22 (BatchNo (None, 96, 96, 48)   192         conv2d_22[0][0]                  \n","__________________________________________________________________________________________________\n","concatenate_6 (Concatenate)     (None, 96, 96, 96)   0           batch_normalization_21[0][0]     \n","                                                                 batch_normalization_22[0][0]     \n","__________________________________________________________________________________________________\n","max_pooling2d_5 (MaxPooling2D)  (None, 48, 48, 96)   0           concatenate_6[0][0]              \n","__________________________________________________________________________________________________\n","conv2d_23 (Conv2D)              (None, 48, 48, 64)   6208        max_pooling2d_5[0][0]            \n","__________________________________________________________________________________________________\n","batch_normalization_23 (BatchNo (None, 48, 48, 64)   256         conv2d_23[0][0]                  \n","__________________________________________________________________________________________________\n","conv2d_24 (Conv2D)              (None, 48, 48, 64)   4160        batch_normalization_23[0][0]     \n","__________________________________________________________________________________________________\n","conv2d_25 (Conv2D)              (None, 48, 48, 64)   36928       batch_normalization_23[0][0]     \n","__________________________________________________________________________________________________\n","batch_normalization_24 (BatchNo (None, 48, 48, 64)   256         conv2d_24[0][0]                  \n","__________________________________________________________________________________________________\n","batch_normalization_25 (BatchNo (None, 48, 48, 64)   256         conv2d_25[0][0]                  \n","__________________________________________________________________________________________________\n","concatenate_7 (Concatenate)     (None, 48, 48, 128)  0           batch_normalization_24[0][0]     \n","                                                                 batch_normalization_25[0][0]     \n","__________________________________________________________________________________________________\n","max_pooling2d_6 (MaxPooling2D)  (None, 24, 24, 128)  0           concatenate_7[0][0]              \n","__________________________________________________________________________________________________\n","conv2d_26 (Conv2D)              (None, 24, 24, 48)   6192        max_pooling2d_6[0][0]            \n","__________________________________________________________________________________________________\n","batch_normalization_26 (BatchNo (None, 24, 24, 48)   192         conv2d_26[0][0]                  \n","__________________________________________________________________________________________________\n","conv2d_27 (Conv2D)              (None, 24, 24, 48)   2352        batch_normalization_26[0][0]     \n","__________________________________________________________________________________________________\n","conv2d_28 (Conv2D)              (None, 24, 24, 48)   20784       batch_normalization_26[0][0]     \n","__________________________________________________________________________________________________\n","batch_normalization_27 (BatchNo (None, 24, 24, 48)   192         conv2d_27[0][0]                  \n","__________________________________________________________________________________________________\n","batch_normalization_28 (BatchNo (None, 24, 24, 48)   192         conv2d_28[0][0]                  \n","__________________________________________________________________________________________________\n","concatenate_8 (Concatenate)     (None, 24, 24, 96)   0           batch_normalization_27[0][0]     \n","                                                                 batch_normalization_28[0][0]     \n","__________________________________________________________________________________________________\n","max_pooling2d_7 (MaxPooling2D)  (None, 12, 12, 96)   0           concatenate_8[0][0]              \n","__________________________________________________________________________________________________\n","conv2d_29 (Conv2D)              (None, 12, 12, 24)   2328        max_pooling2d_7[0][0]            \n","__________________________________________________________________________________________________\n","batch_normalization_29 (BatchNo (None, 12, 12, 24)   96          conv2d_29[0][0]                  \n","__________________________________________________________________________________________________\n","conv2d_30 (Conv2D)              (None, 12, 12, 24)   600         batch_normalization_29[0][0]     \n","__________________________________________________________________________________________________\n","conv2d_31 (Conv2D)              (None, 12, 12, 24)   5208        batch_normalization_29[0][0]     \n","__________________________________________________________________________________________________\n","batch_normalization_30 (BatchNo (None, 12, 12, 24)   96          conv2d_30[0][0]                  \n","__________________________________________________________________________________________________\n","batch_normalization_31 (BatchNo (None, 12, 12, 24)   96          conv2d_31[0][0]                  \n","__________________________________________________________________________________________________\n","concatenate_9 (Concatenate)     (None, 12, 12, 48)   0           batch_normalization_30[0][0]     \n","                                                                 batch_normalization_31[0][0]     \n","__________________________________________________________________________________________________\n","global_average_pooling2d_1 (Glo (None, 48)           0           concatenate_9[0][0]              \n","__________________________________________________________________________________________________\n","dense_1 (Dense)                 (None, 2)            98          global_average_pooling2d_1[0][0] \n","==================================================================================================\n","Total params: 120,466\n","Trainable params: 119,154\n","Non-trainable params: 1,312\n","__________________________________________________________________________________________________\n"],"name":"stdout"}]},{"cell_type":"code","metadata":{"id":"N
…
